----------------------------------------------------------------
        Layer (type)               Output Shape         Param #
================================================================
            Conv2d-1         [-1, 16, 1, 40000]              64
       BatchNorm2d-2         [-1, 16, 1, 40000]              32
            Conv2d-3        [-1, 160, 1, 40000]           7,840
           Dropout-4        [-1, 160, 1, 40000]               0
       BatchNorm2d-5        [-1, 160, 1, 40000]             320
            Conv2d-6        [-1, 160, 1, 40000]          76,960
            Conv2d-7        [-1, 160, 1, 40000]           7,840
        wide_basic-8        [-1, 160, 1, 40000]               0
       BatchNorm2d-9        [-1, 160, 1, 40000]             320
           Conv2d-10        [-1, 160, 1, 40000]          76,960
          Dropout-11        [-1, 160, 1, 40000]               0
      BatchNorm2d-12        [-1, 160, 1, 40000]             320
           Conv2d-13        [-1, 160, 1, 40000]          76,960
       wide_basic-14        [-1, 160, 1, 40000]               0
      BatchNorm2d-15        [-1, 160, 1, 40000]             320
           Conv2d-16        [-1, 160, 1, 40000]          76,960
          Dropout-17        [-1, 160, 1, 40000]               0
      BatchNorm2d-18        [-1, 160, 1, 40000]             320
           Conv2d-19        [-1, 160, 1, 40000]          76,960
       wide_basic-20        [-1, 160, 1, 40000]               0
      BatchNorm2d-21        [-1, 160, 1, 40000]             320
           Conv2d-22        [-1, 160, 1, 40000]          76,960
          Dropout-23        [-1, 160, 1, 40000]               0
      BatchNorm2d-24        [-1, 160, 1, 40000]             320
           Conv2d-25        [-1, 160, 1, 40000]          76,960
       wide_basic-26        [-1, 160, 1, 40000]               0
      BatchNorm2d-27        [-1, 160, 1, 40000]             320
           Conv2d-28        [-1, 320, 1, 40000]         153,920
          Dropout-29        [-1, 320, 1, 40000]               0
      BatchNorm2d-30        [-1, 320, 1, 40000]             640
           Conv2d-31        [-1, 320, 1, 20000]         307,520
           Conv2d-32        [-1, 320, 1, 20000]         153,920
       wide_basic-33        [-1, 320, 1, 20000]               0
      BatchNorm2d-34        [-1, 320, 1, 20000]             640
           Conv2d-35        [-1, 320, 1, 20000]         307,520
          Dropout-36        [-1, 320, 1, 20000]               0
      BatchNorm2d-37        [-1, 320, 1, 20000]             640
           Conv2d-38        [-1, 320, 1, 20000]         307,520
       wide_basic-39        [-1, 320, 1, 20000]               0
      BatchNorm2d-40        [-1, 320, 1, 20000]             640
           Conv2d-41        [-1, 320, 1, 20000]         307,520
          Dropout-42        [-1, 320, 1, 20000]               0
      BatchNorm2d-43        [-1, 320, 1, 20000]             640
           Conv2d-44        [-1, 320, 1, 20000]         307,520
       wide_basic-45        [-1, 320, 1, 20000]               0
      BatchNorm2d-46        [-1, 320, 1, 20000]             640
           Conv2d-47        [-1, 320, 1, 20000]         307,520
          Dropout-48        [-1, 320, 1, 20000]               0
      BatchNorm2d-49        [-1, 320, 1, 20000]             640
           Conv2d-50        [-1, 320, 1, 20000]         307,520
       wide_basic-51        [-1, 320, 1, 20000]               0
      BatchNorm2d-52        [-1, 320, 1, 20000]             640
           Conv2d-53        [-1, 640, 1, 20000]         615,040
          Dropout-54        [-1, 640, 1, 20000]               0
      BatchNorm2d-55        [-1, 640, 1, 20000]           1,280
           Conv2d-56        [-1, 640, 1, 10000]       1,229,440
           Conv2d-57        [-1, 640, 1, 10000]         615,040
       wide_basic-58        [-1, 640, 1, 10000]               0
      BatchNorm2d-59        [-1, 640, 1, 10000]           1,280
           Conv2d-60        [-1, 640, 1, 10000]       1,229,440
          Dropout-61        [-1, 640, 1, 10000]               0
      BatchNorm2d-62        [-1, 640, 1, 10000]           1,280
           Conv2d-63        [-1, 640, 1, 10000]       1,229,440
       wide_basic-64        [-1, 640, 1, 10000]               0
      BatchNorm2d-65        [-1, 640, 1, 10000]           1,280
           Conv2d-66        [-1, 640, 1, 10000]       1,229,440
          Dropout-67        [-1, 640, 1, 10000]               0
      BatchNorm2d-68        [-1, 640, 1, 10000]           1,280
           Conv2d-69        [-1, 640, 1, 10000]       1,229,440
       wide_basic-70        [-1, 640, 1, 10000]               0
      BatchNorm2d-71        [-1, 640, 1, 10000]           1,280
           Conv2d-72        [-1, 640, 1, 10000]       1,229,440
          Dropout-73        [-1, 640, 1, 10000]               0
      BatchNorm2d-74        [-1, 640, 1, 10000]           1,280
           Conv2d-75        [-1, 640, 1, 10000]       1,229,440
       wide_basic-76        [-1, 640, 1, 10000]               0
      BatchNorm2d-77        [-1, 640, 1, 10000]           1,280
           Linear-78                    [-1, 2]           1,282
================================================================
Total params: 12,870,338
Trainable params: 12,870,338
Non-trainable params: 0
----------------------------------------------------------------
Input size (MB): 0.15
Forward/backward pass size (MB): 3964.84
Params size (MB): 49.10
Estimated Total Size (MB): 4014.09
----------------------------------------------------------------
